…
ha_0.4_0.7/', per_node_MLP=False, pert=None, recurrent=False, save_embeddings=False, save_folder='/data/pankaj/CLTS/output/CombGen/5Aug2020_NARMA_2D_S1_4_data6_spur_corr_400epochs_train_alpha_0.4_0.7_B_4L/narma_2d_4_n0.csv', save_interval=20, save_predictions=False, seed=42, sepCTRL=True, setup=1, shift=10, shuffle=True, sigma=0.5, soft_decoder_gl=False, soft_decoder_l1=False, split=0.75, steps=1, stride=1, use_condenser=False, window_size=11)
(7999, 2, 11)
(1999, 2, 11)
Data loaded!
MVTS(
  (control_CNN_0): CNN_Extractor_cont(
    (dropoutlayer): Dropout(p=0.0)
    (CNN): Sequential(
      (0): Conv1d(1, 8, kernel_size=(5,), stride=(1,), padding=(4,))
      (1): Chomp1d()
      (2): BatchNorm1d(8, eps=1e-05, momentum=0.1, affine=True, track_running_stats=True)
      (3): LeakyReLU(negative_slope=0.01)
      (4): Conv1d(8, 8, kernel_size=(5,), stride=(1,), padding=(4,))
      (5): Chomp1d()
      (6): BatchNorm1d(8, eps=1e-05, momentum=0.1, affine=True, track_running_stats=True)
      (7): LeakyReLU(negative_slope=0.01)
      (8): Conv1d(8, 1, kernel_size=(5,), stride=(1,), padding=(4,))
      (9): Chomp1d()
      (10): BatchNorm1d(1, eps=1e-05, momentum=0.1, affine=True, track_running_stats=True)
      (11): Tanh()
    )
  )
  (control_CNN_1): CNN_Extractor_cont(
    (dropoutlayer): Dropout(p=0.0)
    (CNN): Sequential(
      (0): Conv1d(1, 8, kernel_size=(5,), stride=(1,), padding=(4,))
      (1): Chomp1d()
      (2): BatchNorm1d(8, eps=1e-05, momentum=0.1, affine=True, track_running_stats=True)
      (3): LeakyReLU(negative_slope=0.01)
      (4): Conv1d(8, 8, kernel_size=(5,), stride=(1,), padding=(4,))
      (5): Chomp1d()
      (6): BatchNorm1d(8, eps=1e-05, momentum=0.1, affine=True, track_running_stats=True)
      (7): LeakyReLU(negative_slope=0.01)
      (8): Conv1d(8, 1, kernel_size=(5,), stride=(1,), padding=(4,))
      (9): Chomp1d()
      (10): BatchNorm1d(1, eps=1e-05, momentum=0.1, affine=True, track_running_stats=True)
      (11): Tanh()
    )
  )
  (state_CNN): CNN_Extractor(
    (CNN): Sequential(
      (0): Conv1d(2, 8, kernel_size=(5,), stride=(1,), padding=(4,))
      (1): Chomp1d()
      (2): BatchNorm1d(8, eps=1e-05, momentum=0.1, affine=True, track_running_stats=True)
      (3): LeakyReLU(negative_slope=0.01)
      (4): Conv1d(8, 8, kernel_size=(5,), stride=(1,), padding=(4,))
      (5): Chomp1d()
      (6): BatchNorm1d(8, eps=1e-05, momentum=0.1, affine=True, track_running_stats=True)
      (7): LeakyReLU(negative_slope=0.01)
      (8): Conv1d(8, 2, kernel_size=(5,), stride=(1,), padding=(4,))
      (9): Chomp1d()
      (10): BatchNorm1d(2, eps=1e-05, momentum=0.1, affine=True, track_running_stats=True)
      (11): Tanh()
    )
  )
  (state_LSTM): LSTM(11, 40)
  (control_LSTM_0): LSTM(11, 40)
  (control_LSTM_1): LSTM(11, 40)
  (extract_state): Sequential(
    (0): Linear(in_features=40, out_features=11, bias=True)
    (1): Tanh()
  )
  (transition_model): Sequential(
    (0): Linear(in_features=160, out_features=160, bias=True)
    (1): Tanh()
    (2): Linear(in_features=160, out_features=80, bias=True)
    (3): Tanh()
  )
  (decoder): Linear(in_features=80, out_features=2, bias=True)
  (MSE): MSELoss()
)
Starting model training...
Epoch: 1 [0/5999 (0%)]	Loss: 98.082657
Epoch: 1 [2560/5999 (43%)]	Loss: 16.609316
saving model at:1,0.12200910151004792
Epoch: 1 [5120/5999 (85%)]	Loss: 11.460349
saving model at:1,0.08851202857494354
====> Epoch: 1 Average loss: 0.162598 
Epoch: 2 [0/5999 (0%)]	Loss: 10.890052
Epoch: 2 [2560/5999 (43%)]	Loss: 11.175838
…
